…
p&#x2F;annotated-transformer</a></li>\n<li>注意：模型结构定义并不决定 forward 流程，可以有多个函数，使用网络中不同的部分</li>\n<li>base model info: embeding 参数可能会共享</li>\n</ol>\n<figure class=\"highlight text\"><table><tr><td class=\"code\"><pre><span class=\"line\">EncoderDecoder(</span><br><span class=\"line\">  (encoder): Encoder(</span><br><span class=\"line\">    (layers): ModuleList(</span><br><span class=\"line\">      (0-5): EncoderLayer(</span><br><span class=\"line\">        (self_attn): MultiHeadedAttention(</span><br><span class=\"line\">          (linears): ModuleList(</span><br><span class=\"line\">            (0): Linear(in_features=512, out_features=512, bias=True)</span><br><span class=\"line\">            (1): Linear(in_features=512, out_features=512, bias=True)</span><br><span class=\"line\">            (2): Linear(in_features=512, out_features=512, bias=True)</span><br><span class=\"line\">            (3): Linear(in_features=512, out_features=512, bias=True)</span><br><span class=\"line\">          )</span><br><span class=\"line\">          (dropout): Dropout(p=0.1, inplace=False)</span><br><span class=\"line\">        )</span><br><span class=\"line\">        (feed_forward): PositionwiseFeedForward(</span><br><span class=\"line\">          (w_1): Linear(in_features=512, out_features=2048, bias=True)</span><br><span class=\"line\">          (w_2): Linear(in_features=2048, out_features=512, bias=True)</span><br><span class=\"line\">          (dropout): Dropout(p=0.1, inplace=False)</span><br><span class=\"line\">        )</span><br><span class=\"line\">        (sublayer): ModuleList(</span><br><span class=\"line\">          (0): SublayerConnection(</span><br><span class=\"line\">            (norm): LayerNorm()</span><br><span class=\"line\">            (dropout): Dropout(p=0.1, inplace=False)</span><br><span class=\"line\">          )</span><br><span class=\"line\">          (1): SublayerConnection(</span><br><span class=\"line\">            (norm): LayerNorm()</span><br><span class=\"line\">            (dropout): Dropout(p=0.1, inplace=False)</span><br><span class=\"line\">          )</span><br><span class=\"line\">        )</span><br><span class=\"line\">      )</span><br><span class=\"line\">    (norm): LayerNorm()</span><br><span class=\"line\">  )</span><br><span class=\"line\">  (decoder): Decoder(</span><br><span class=\"line\">    (layers): ModuleList(</span><br><span class=\"line\">      (0-5): DecoderLayer(</span><br><span class=\"line\">        (self_attn): MultiHeadedAttention(</span><br><span class=\"line\">          (linears): ModuleList(</span><br><span class=\"line\">            (0): Linear(in_features=512, out_features=512, bias=True)</span><br><span class=\"line\">            (1): Linear(in_features=512, out_features=512, bias=True)</span><br><span class=\"line\">            (2): Linear(in_features=512, out_features=512, bias=True)</span><br><span class=\"line\">            (3): Linear(in_features=512, out_features=512, bias=True)</span><br><span class=\"line\">          )</span><br><span class=\"line\">          (dropout): Dropout(p=0.1, inplace=False)</span><br><span class=\"line\">        )</span><br><span class=\"line\">        (src_attn): MultiHeadedAttention(</span><br><span class=\"line\">          (linears): ModuleList(</span><br><span class=\"line\">            (0): Linear(in_features=512, out_features=512, bias=True)</span><br><span class=\"line\">            (1): Linear(in_features=512, out_features=512, bias=True)</span><br><span class=\"line\">            (2): Linear(in_features=512, out_features=512, bias=True)</span><br><span class=\"line\">            (3): Linear(in_features=512, out_features=512, bias=True)</span><br><span class=\"line\">          )</span><br><span class=\"line\">          (dropout): Dropout(p=0.1, inplace=False)</span><br><span class=\"line\">        )</span><br><span class=\"line\">        (feed_forward): PositionwiseFeedForward(</span><br><span class=\"line\">          (w_1): Linear(in_features=512, out_features=2048, bias=True)</span><br><span class=\"line\">          (w_2): Linear(in_features=2048, out_features=512, bias=True)</span><br><span class=\"line\">          (dropout): Dropout(p=0.1, inplace=False)</span><br><span class=\"line\">        )</span><br><span class=\"line\">        (sublayer): ModuleList(</span><br><span class=\"line\">          (0): SublayerConnection(</span><br><span class=\"line\">            (norm): LayerNorm()</span><br><span class=\"line\">            (dropout): Dropout(p=0.1, inplace=False)</span><br><span class=\"line\">          )</span><br><span class=\"line\">          (1): SublayerConnection(</span><br><span class=\"line\">            (norm): LayerNorm()</span><br><span class=\"line\">            (dropout): Dropout(p=0.1, inplace=False)</span><br><span class=\"line\">          )</span><br><span class=\"line\">          (2): SublayerConnection(</span><br><span class=\"line\">            (norm): LayerNorm()</span><br><span class=\"line\">            (dropout): Dropout(p=0.1, inplace=False)</span><br><span class=\"line\">          )</span><br><span class=\"line\">        )</span><br><span class=\"line\">      )</span><br><span class=\"line\">    (norm): LayerNorm()</span><br><span class=\"line\">  )</span><br><span class=\"line\">  (src_embed): Sequential(</span><br><span class=\"line\">    (0): Embeddings(</span><br><span class=\"line\">      (lut): Embedding(32000, 512)</span><br><span class=\"line\">    )</span><br><span class=\"line\">    (1): PositionalEncoding(</span><br><span class=\"line\">      (dropout): Dropout(p=0.1, inplace=False)</span><br><span class=\"line\">    )</span><br><span class=\"line\">  )</span><br><span class=\"line\">  (tgt_embed): Sequential(</span><br><span class=\"line\">    (0): Embeddings(</span><br><span class=\"line\">      (lut): Embedding(32000, 512)</span><br><span class=\"line\">    )</span><br><span class=\"line\">    (1): PositionalEncoding(</span><br><span class=\"line\">      (dropout): Dropout(p=0.1, inplace=False)</span><br><span class=\"line\">    )</span><br><span class=\"line\">  )</span><br><span class=\"line\">  (generator): Generator(</span><br><span class=\"line\">    (proj): Linear(in_features=512, out_features=32000, bias=True)</span><br><span class=\"line\">  )</span><br><span class=\"line\">)</span><br></pre></td></tr></table></figure>\n\n<ol>\n<li>参数总量：65M,论文中有提及</li>\n</ol>\n<h3 id=\"llama2-7b\"><a href=\"#llama2-7b\" class=\"headerlink\" title=\"llama2-7b\"></a><a href=\"https://huggingface.co/meta-llama/Llama-2-7b-hf/blob/main/config.json\">llama2-7b</a></h3><ol>\n<li>model info</li>\n</ol>\n<figure class=\"highlight text\"><table><tr><td class=\"code\"><pre><span class=\"line\">LlamaForCausalLM(</span><br><span class=\"line\">  (model): LlamaModel(</span><br><span class=\"line\">    (embed_tokens): Embedding(32000, 4096, padding_idx=0)</span><br><span class=\"line\">    (layers): ModuleList(</span><br><span class=\"line\">      (0-31): 32 x LlamaDecoderLayer(</span><br><span class=\"line\">        (self_attn): LlamaAttention(</span><br><span class=\"line\">          (q_proj): Linear(in_features=4096, out_features=4096, bias=False)</span><br><span class=\"line\">          (k_proj): Linear(in_features=4096, out_features=4096, bias=False)</span><br><span class=\"line\">          (v_proj): Linear(in_features=4096, out_features=4096, bias=False)</span><br><span class=\"line\">          (o_proj): Linear(in_features=4096, out_features=4096, bias=False)</span><br><span class=\"line\">          (rotary_emb): LlamaRotaryEmbedding()</span><br><span class=\"line\">        )</span><br><span class=\"line\">        (mlp): LlamaMLP(</span><br><span class=\"line\">          (gate_proj): Linear(in_features=4096, out_features=11008, bias=False) # 输入是 in_features, 输出为 out_features, 矩阵参数shape为（out_features, in_features); 因为矩阵乘法：(out_features, in_features)(in_features, 1) = (out_features, 1)</span><br><span class=\"line\">          (up_proj): Linear(in_features=4096, out_features=11008, bias=False)</span><br><span class=\"line\">          (down_proj): Linear(in_features=11008, out_features=4096, bias=False)</span><br><span class=\"line\">          (act_fn): SiLUActivation()</span><br><span class=\"line\">        )</span><br><span class=\"line\">        (input_layernorm): LlamaRMSNorm()</span><br><span class=\"line\">        (post_attention_layernorm): LlamaRMSNorm()</span><br><span class=\"line\">      )</span><br><span class=\"line\">    )</span><br><span class=\"line\">    (norm): LlamaRMSNorm()</span><br><span class=\"line\">  )</span><br><span class=\"line\">  (lm_head): Linear(in_features=4096, out_features=32000, bias=False)</span><br><span class=\"line\">)</span><br></pre></td></tr></table></figure>\n\n<ol>\n<li><p>参数: 见 pytorch params 计算，<a href=\"https://medium.com/@saratbhargava/mastering-llama-math-part-1-a-step-by-step-guide-to-counting-parameters-in-llama-2-b3d73bc3ae31\">link</a></p>\n<ul>\n<li>total: 131072000 + 6476267520 + 4096 + 131072000 &#x3D; 6738415616 
…
