…
ps://epochai.org/mlinputs/visualization?yAxis=Parameters) 可交互, 右上角 option 可搜索，可直接到论文\n1. [transformer-inference-arithmetic](https://kipp.ly/transformer-inference-arithmetic/)\n\n### transformer(all you need is attention)\n\n1. [harvardnlp/annotated-transformer](https://github.com/harvardnlp/annotated-transformer)\n1. 注意：模型结构定义并不决定 forward 流程，可以有多个函数，使用网络中不同的部分\n1. base model info: embeding 参数可能会共享\n\n```text\nEncoderDecoder(\n  (encoder): Encoder(\n    (layers): ModuleList(\n      (0-5): EncoderLayer(\n        (self_attn): MultiHeadedAttention(\n          (linears): ModuleList(\n            (0): Linear(in_features=512, out_features=512, bias=True)\n            (1): Linear(in_features=512, out_features=512, bias=True)\n            (2): Linear(in_features=512, out_features=512, bias=True)\n            (3): Linear(in_features=512, out_features=512, bias=True)\n          )\n          (dropout): Dropout(p=0.1, inplace=False)\n        )\n        (feed_forward): PositionwiseFeedForward(\n          (w_1): Linear(in_features=512, out_features=2048, bias=True)\n          (w_2): Linear(in_features=2048, out_features=512, bias=True)\n          (dropout): Dropout(p=0.1, inplace=False)\n        )\n        (sublayer): ModuleList(\n          (0): SublayerConnection(\n            (norm): LayerNorm()\n            (dropout): Dropout(p=0.1, inplace=False)\n          )\n          (1): SublayerConnection(\n            (norm): LayerNorm()\n            (dropout): Dropout(p=0.1, inplace=False)\n          )\n        )\n      )\n    (norm): LayerNorm()\n  )\n  (decoder): Decoder(\n    (layers): ModuleList(\n      (0-5): DecoderLayer(\n        (self_attn): MultiHeadedAttention(\n          (linears): ModuleList(\n            (0): Linear(in_features=512, out_features=512, bias=True)\n            (1): Linear(in_features=512, out_features=512, bias=True)\n            (2): Linear(in_features=512, out_features=512, bias=True)\n            (3): Linear(in_features=512, out_features=512, bias=True)\n          )\n          (dropout): Dropout(p=0.1, inplace=False)\n        )\n        (src_attn): MultiHeadedAttention(\n          (linears): ModuleList(\n            (0): Linear(in_features=512, out_features=512, bias=True)\n            (1): Linear(in_features=512, out_features=512, bias=True)\n            (2): Linear(in_features=512, out_features=512, bias=True)\n            (3): Linear(in_features=512, out_features=512, bias=True)\n          )\n          (dropout): Dropout(p=0.1, inplace=False)\n        )\n        (feed_forward): PositionwiseFeedForward(\n          (w_1): Linear(in_features=512, out_features=2048, bias=True)\n          (w_2): Linear(in_features=2048, out_features=512, bias=True)\n          (dropout): Dropout(p=0.1, inplace=False)\n        )\n        (sublayer): ModuleList(\n          (0): SublayerConnection(\n            (norm): LayerNorm()\n            (dropout): Dropout(p=0.1, inplace=False)\n          )\n          (1): SublayerConnection(\n            (norm): LayerNorm()\n            (dropout): Dropout(p=0.1, inplace=False)\n          )\n          (2): SublayerConnection(\n            (norm): LayerNorm()\n            (dropout): Dropout(p=0.1, inplace=False)\n          )\n        )\n      )\n    (norm): LayerNorm()\n  )\n  (src_embed): Sequential(\n    (0): Embeddings(\n      (lut): Embedding(32000, 512)\n    )\n    (1): PositionalEncoding(\n      (dropout): Dropout(p=0.1, inplace=False)\n    )\n  )\n  (tgt_embed): Sequential(\n    (0): Embeddings(\n      (lut): Embedding(32000, 512)\n    )\n    (1): PositionalEncoding(\n      (dropout): Dropout(p=0.1, inplace=False)\n    )\n  )\n  (generator): Generator(\n    (proj): Linear(in_features=512, out_features=32000, bias=True)\n  )\n)\n```\n\n1. 参数总量：65M,论文中有提及\n\n### [llama2-7b](https://huggingface.co/meta-llama/Llama-2-7b-hf/blob/main/config.json)\n\n1. model info\n\n```text\nLlamaForCausalLM(\n  (model): LlamaModel(\n    (embed_tokens): Embedding(32000, 4096, padding_idx=0)\n    (layers): ModuleList(\n      (0-31): 32 x LlamaDecoderLayer(\n        (self_attn): LlamaAttention(\n          (q_proj): Linear(in_features=4096, out_features=4096, bias=False)\n          (k_proj): Linear(in_features=4096, out_features=4096, bias=False)\n          (v_proj): Linear(in_features=4096, out_features=4096, bias=False)\n          (o_proj): Linear(in_features=4096, out_features=4096, bias=False)\n          (rotary_emb): LlamaRotaryEmbedding()\n        )\n        (mlp): LlamaMLP(\n          (gate_proj): Linear(in_features=4096, out_features=11008, bias=False) # 输入是 in_features, 输出为 out_features, 矩阵参数shape为（out_features, in_features); 因为矩阵乘法：(out_features, in_features)(in_features, 1) = (out_features, 1)\n          (up_proj): Linear(in_features=4096, out_features=11008, bias=False)\n          (down_proj): Linear(in_features=11008, out_features=4096, bias=False)\n          (act_fn): SiLUActivation()\n        )\n        (input_layernorm): LlamaRMSNorm()\n        (post_attention_layernorm): LlamaRMSNorm()\n      )\n    )\n    (norm): LlamaRMSNorm()\n  )\n  (lm_head): Linear(in_features=4096, out_features=32000, bias=False)\n)\n```\n\n1. 参数: 见 pytorch params 计算，[link](https://medium.com/@saratbhargava/mastering-llama-math-part-1-a-step-by-step-guide-to-counting-parameters-in-llama-2-b3d73bc3ae31)\n   - total: 131072000 + 6476267520 + 4096 + 131072000 = 6738415616 = 6.7B\n     - embed_tokens: (32000, 4096) = 131072000\n     - attention block x 32 = 202383360 x 32 = 647
…
